Model: "sequential_9"
_________________________________________________________________
 Layer (type)                Output Shape              Param #
=================================================================
 dense_31 (Dense)            (None, 16)                320
 batch_normalization_20 (Bat  (None, 16)               64
 chNormalization)
 activation_11 (Activation)  (None, 16)                0
 dropout_14 (Dropout)        (None, 16)                0
 dense_32 (Dense)            (None, 32)                544
 batch_normalization_21 (Bat  (None, 32)               128
 chNormalization)
 activation_12 (Activation)  (None, 32)                0
 dropout_15 (Dropout)        (None, 32)                0
 dense_33 (Dense)            (None, 16)                528
 batch_normalization_22 (Bat  (None, 16)               64
 chNormalization)
 activation_13 (Activation)  (None, 16)                0
 dropout_16 (Dropout)        (None, 16)                0
 dense_34 (Dense)            (None, 16)                272
 batch_normalization_23 (Bat  (None, 16)               64
 chNormalization)
 activation_14 (Activation)  (None, 16)                0
 dropout_17 (Dropout)        (None, 16)                0
 dense_35 (Dense)            (None, 16)                272
 batch_normalization_24 (Bat  (None, 16)               64
 chNormalization)
 activation_15 (Activation)  (None, 16)                0
 dropout_18 (Dropout)        (None, 16)                0
 dense_36 (Dense)            (None, 1)                 17
 batch_normalization_25 (Bat  (None, 1)                4
 chNormalization)
 activation_16 (Activation)  (None, 1)                 0
=================================================================
Total params: 2,341
Trainable params: 2,147
Non-trainable params: 194
_________________________________________________________________
Epoch 1/10



520/520 [==============================] - 11s 18ms/step - loss: 3.7546 - accuracy: 0.5490
Epoch 2/10




520/520 [==============================] - 9s 18ms/step - loss: 1.9850 - accuracy: 0.5779
…
